digraph "graph" {
node [shape="record"]
"sequential/resizing/resize/ResizeBilinear" [label="{Transpose}"]
"sequential/resizing/resize/ResizeBilinear" [label="{ResizeImage}"]
"sequential/resizing/resize/ResizeBilinear" [label="{Transpose}"]
"sequential/conv2d/Relu;sequential/conv2d/BiasAdd;sequential/conv2d/Conv2D;sequential/conv2d/BiasAdd/ReadVariableOp/resource1/in_tp" [label="{Transpose}"]
"sequential/conv2d/Relu;sequential/conv2d/BiasAdd;sequential/conv2d/Conv2D;sequential/conv2d/BiasAdd/ReadVariableOp/resource1/weights_tp" [label="{Transpose}"]
"sequential/conv2d/Relu;sequential/conv2d/BiasAdd;sequential/conv2d/Conv2D;sequential/conv2d/BiasAdd/ReadVariableOp/resource1/conv" [label="{Conv2D}"]
"sequential/conv2d/Relu;sequential/conv2d/BiasAdd;sequential/conv2d/Conv2D;sequential/conv2d/BiasAdd/ReadVariableOp/resource1/out_tp" [label="{Transpose}"]
"sequential/conv2d_1/Relu;sequential/conv2d_1/BiasAdd;sequential/conv2d_1/Conv2D;sequential/conv2d_1/BiasAdd/ReadVariableOp/resource/in_tp" [label="{Transpose}"]
"sequential/conv2d_1/Relu;sequential/conv2d_1/BiasAdd;sequential/conv2d_1/Conv2D;sequential/conv2d_1/BiasAdd/ReadVariableOp/resource/weights_tp" [label="{Transpose}"]
"sequential/conv2d_1/Relu;sequential/conv2d_1/BiasAdd;sequential/conv2d_1/Conv2D;sequential/conv2d_1/BiasAdd/ReadVariableOp/resource/conv" [label="{Conv2D}"]
"sequential/conv2d_1/Relu;sequential/conv2d_1/BiasAdd;sequential/conv2d_1/Conv2D;sequential/conv2d_1/BiasAdd/ReadVariableOp/resource/out_tp" [label="{Transpose}"]
"sequential/max_pooling2d/MaxPool" [label="{Transpose}"]
"sequential/max_pooling2d/MaxPool" [label="{ReduceWindow2D}"]
"sequential/max_pooling2d/MaxPool" [label="{Transpose}"]
"sequential/flatten/Reshape" [label="{Bitcast}"]
"sequential/dense/MatMul;sequential/dense/Relu;sequential/dense/BiasAdd/input_b_transpose_1" [label="{Transpose}"]
"sequential/dense/MatMul;sequential/dense/Relu;sequential/dense/BiasAdd/reshape" [label="{Bitcast}"]
"sequential/dense/MatMul;sequential/dense/Relu;sequential/dense/BiasAdd/fc" [label="{MatMul}"]
"Identity/input_b_transpose_1" [label="{Transpose}"]
"Identity/reshape" [label="{Bitcast}"]
"Identity/fc" [label="{MatMul}"]
"input_1" [label="{Input}"]
"Identity" [label="{Output}"]
"sequential/resizing/resize/ResizeBilinear"->"sequential/resizing/resize/ResizeBilinear" [label="f32[1,1,124,129]"]
"sequential/resizing/resize/ResizeBilinear"->"sequential/resizing/resize/ResizeBilinear" [label="f32[1,1,32,32]"]
"sequential/resizing/resize/ResizeBilinear"->"sequential/conv2d/Relu;sequential/conv2d/BiasAdd;sequential/conv2d/Conv2D;sequential/conv2d/BiasAdd/ReadVariableOp/resource1/in_tp" [label="f32[1,32,32,1]"]
"sequential/conv2d/Relu;sequential/conv2d/BiasAdd;sequential/conv2d/Conv2D;sequential/conv2d/BiasAdd/ReadVariableOp/resource1/in_tp"->"sequential/conv2d/Relu;sequential/conv2d/BiasAdd;sequential/conv2d/Conv2D;sequential/conv2d/BiasAdd/ReadVariableOp/resource1/conv" [label="f32[1,1,32,32]"]
"sequential/conv2d/Relu;sequential/conv2d/BiasAdd;sequential/conv2d/Conv2D;sequential/conv2d/BiasAdd/ReadVariableOp/resource1/weights_tp"->"sequential/conv2d/Relu;sequential/conv2d/BiasAdd;sequential/conv2d/Conv2D;sequential/conv2d/BiasAdd/ReadVariableOp/resource1/conv" [label="f32[32,1,3,3]"]
"sequential/conv2d/Relu;sequential/conv2d/BiasAdd;sequential/conv2d/Conv2D;sequential/conv2d/BiasAdd/ReadVariableOp/resource1/conv"->"sequential/conv2d/Relu;sequential/conv2d/BiasAdd;sequential/conv2d/Conv2D;sequential/conv2d/BiasAdd/ReadVariableOp/resource1/out_tp" [label="f32[1,32,30,30]"]
"sequential/conv2d/Relu;sequential/conv2d/BiasAdd;sequential/conv2d/Conv2D;sequential/conv2d/BiasAdd/ReadVariableOp/resource1/out_tp"->"sequential/conv2d_1/Relu;sequential/conv2d_1/BiasAdd;sequential/conv2d_1/Conv2D;sequential/conv2d_1/BiasAdd/ReadVariableOp/resource/in_tp" [label="f32[1,30,30,32]"]
"sequential/conv2d_1/Relu;sequential/conv2d_1/BiasAdd;sequential/conv2d_1/Conv2D;sequential/conv2d_1/BiasAdd/ReadVariableOp/resource/in_tp"->"sequential/conv2d_1/Relu;sequential/conv2d_1/BiasAdd;sequential/conv2d_1/Conv2D;sequential/conv2d_1/BiasAdd/ReadVariableOp/resource/conv" [label="f32[1,32,30,30]"]
"sequential/conv2d_1/Relu;sequential/conv2d_1/BiasAdd;sequential/conv2d_1/Conv2D;sequential/conv2d_1/BiasAdd/ReadVariableOp/resource/weights_tp"->"sequential/conv2d_1/Relu;sequential/conv2d_1/BiasAdd;sequential/conv2d_1/Conv2D;sequential/conv2d_1/BiasAdd/ReadVariableOp/resource/conv" [label="f32[64,32,3,3]"]
"sequential/conv2d_1/Relu;sequential/conv2d_1/BiasAdd;sequential/conv2d_1/Conv2D;sequential/conv2d_1/BiasAdd/ReadVariableOp/resource/conv"->"sequential/conv2d_1/Relu;sequential/conv2d_1/BiasAdd;sequential/conv2d_1/Conv2D;sequential/conv2d_1/BiasAdd/ReadVariableOp/resource/out_tp" [label="f32[1,64,28,28]"]
"sequential/conv2d_1/Relu;sequential/conv2d_1/BiasAdd;sequential/conv2d_1/Conv2D;sequential/conv2d_1/BiasAdd/ReadVariableOp/resource/out_tp"->"sequential/max_pooling2d/MaxPool" [label="f32[1,28,28,64]"]
"sequential/max_pooling2d/MaxPool"->"sequential/max_pooling2d/MaxPool" [label="f32[1,64,28,28]"]
"sequential/max_pooling2d/MaxPool"->"sequential/max_pooling2d/MaxPool" [label="f32[1,64,14,14]"]
"sequential/max_pooling2d/MaxPool"->"sequential/flatten/Reshape" [label="f32[1,14,14,64]"]
"sequential/flatten/Reshape"->"sequential/dense/MatMul;sequential/dense/Relu;sequential/dense/BiasAdd/reshape" [label="f32[1,12544]"]
"sequential/dense/MatMul;sequential/dense/Relu;sequential/dense/BiasAdd/input_b_transpose_1"->"sequential/dense/MatMul;sequential/dense/Relu;sequential/dense/BiasAdd/fc" [label="f32[12544,128]"]
"sequential/dense/MatMul;sequential/dense/Relu;sequential/dense/BiasAdd/reshape"->"sequential/dense/MatMul;sequential/dense/Relu;sequential/dense/BiasAdd/fc" [label="f32[1,12544]"]
"sequential/dense/MatMul;sequential/dense/Relu;sequential/dense/BiasAdd/fc"->"Identity/reshape" [label="f32[1,128]"]
"Identity/input_b_transpose_1"->"Identity/fc" [label="f32[128,8]"]
"Identity/reshape"->"Identity/fc" [label="f32[1,128]"]
"Identity/fc"->"Identity" [label="f32[1,8]"]
"input_1"->"sequential/resizing/resize/ResizeBilinear" [label="f32[1,124,129,1]"]
}
